.dart_tool/chrome-device/Default/optimization_guide_prediction_model_downloads/8f9eebc6-c97e-4fc8-a236-26d8b5afaef6/model.tflite (tflite, 67216 bytes, 5 tensors)

dnn/hiddenlayer_1/bias/part_0 f4 [64]
0	0xbd67c0d9	-0.0565804
1	0x3ca8f0ac	0.020622574
2	0xbd04435e	-0.03229081
3	0x3db819a5	0.08989266
4	0x3bff1661	0.00778465
5	0xbb7666eb	-0.0037597965
6	0xbd69b6c6	-0.057059072
7	0x3ca98119	0.020691441
8	0x3d2de6e5	0.042456526
9	0x3dc2f5a6	0.0951951
10	0x3ddbd8b7	0.107346945
11	0xbd3ce324	-0.046115056
12	0x3ce00627	0.027346684
13	0x3d55008b	0.05200247
14	0xbbf85b5f	-0.0075792517
15	0xbd32829e	-0.043581598
16	0xbcd0e5a8	-0.025500134
17	0x3b042820	0.0020165518
18	0x3d89e4fe	0.0673313
19	0x3dabff8a	0.083983496
20	0xbc1e7c08	-0.009673126
21	0x3c613a53	0.013746816
22	0xbbc46847	-0.005993876
23	0xbd613cd5	-0.054989655
24	0x3d0aea33	0.033914756
25	0x3dbd3922	0.09239413
26	0xbd1f7f90	-0.038940012
27	0x3ccedd3d	0.025251979
28	0x3c95f186	0.018303644
29	0x3cc81ebb	0.024428716
30	0x3bd2cb54	0.00643293
31	0x3d1f362b	0.038870018
32	0xbc76ef12	-0.015071647
33	0xbcacfc12	-0.02111629
34	0xbd59f31c	-0.053210363
35	0xbd0a2dbf	-0.033735033
36	0x3c9796aa	0.01850446
37	0xbccb50be	-0.024818774
38	0xbd06cef4	-0.03291221
39	0x3d815c33	0.06316414
40	0xbd91c0f1	-0.07116879
41	0x3de2e826	0.11079435
42	0xbce0fbc5	-0.027463803
43	0x3da24e68	0.07925111
44	0x3cf3d678	0.029765353
45	0x3aae4c08	0.0013297806
46	0x3dafaaae	0.085774764
47	0xbd596fe7	-0.053085234
48	0xbd38d068	-0.045120627
49	0x3c0bd843	0.0085354475
50	0x3d09cabc	0.03364061
51	0xbcb8ce7a	-0.022559393
52	0x3cf095bf	0.02936828
53	0xbd4b1f7d	-0.049590576
54	0xbca7f757	-0.020503683
55	0xbc00f027	-0.007869757
56	0xbcd4a829	-0.025959091
57	0x3beca26d	0.007221511
58	0xbc7018b9	-0.014654332
59	0x3cbcff6b	0.023071012
60	0xbb0de0b3	-0.0021648824
61	0x3d0f8fec	0.035049364
62	0x3d18ab23	0.037272584
63	0x3d39e088	0.045380145

dnn/hiddenlayer_0/bias/part_0 f4 [128]
0	0xbda62ad9	-0.08113641
1	0xbd4c97f5	-0.049949605
2	0xbd4996fb	-0.04921625
3	0xbe12d7eb	-0.14340179
4	0x3c59798f	0.013273611
5	0xbd1c4e03	-0.038160335
6	0xbca0e9e4	-0.019642778
7	0xbc68f9ec	-0.014219742
8	0xbcaefab2	-0.021359775
9	0x3ddfffbe	0.10937451
10	0x3c999263	0.01874656
11	0xbbf06745	-0.0073365294
12	0x3d9fd18b	0.07803639
13	0xbc8f2e2c	-0.017478071
14	0xbc232fcd	-0.009960127
15	0xbd07009f	-0.032959577
16	0x3d81ad22	0.063318506
17	0xbd46d713	-0.048544955
18	0x3d45b3d9	0.04826722
19	0x3d98e6e0	0.07465911
20	0xbd798bba	-0.06092427
21	0x3cda0169	0.026612
22	0xbded0fdc	-0.115752906
23	0xbb47034a	-0.003036695
24	0x3cf9a1ad	0.0304726
25	0xbd67f2da	-0.056628086
26	0xb9e4a1fe	-0.00043608242
27	0x3c861725	0.016368458
28	0xbb68b5d9	-0.003550878
29	0xbb2da19a	-0.0026494027
30	0xbccec81e	-0.025241908
31	0x3d4e0607	0.050298717
32	0xbdea35df	-0.11436056
33	0x3b43e78c	0.0029892651
34	0x3dd238cf	0.10264742
35	0x3dd94618	0.106090724
36	0xbc970f6a	-0.018439967
37	0x3d4adf3d	0.049529303
38	0x3d2e8ece	0.042616658
39	0x3cad150d	0.021128202
40	0xbdb7d572	-0.08976258
41	0xbca623aa	-0.020280678
42	0x3d350c8b	0.044201415
43	0x3d2b9b96	0.041896425
44	0x3c89d76d	0.016826356
45	0x3aebc841	0.0017988757
46	0xbd646f63	-0.05577029
47	0xbc8bea3c	-0.017079465
48	0x3da2e513	0.07953849
49	0xbc8b5810	-0.017009765
50	0xbccb1deb	-0.02479454
51	0xbdd55c05	-0.10417942
52	0x3cedf9e4	0.029049821
53	0x3bc25471	0.0059304764
54	0x3d79d4e5	0.060994048
55	0x3d9fb290	0.0779773
56	0xbcac7c94	-0.021055497
57	0xbd6a689e	-0.057228677
58	0xbcbb9e1b	-0.022902539
59	0x3c9901a6	0.018677544
60	0x3d3e7c00	0.046504974
61	0x3d9f3ca1	0.07775236
62	0x3d1f2471	0.038853113
63	0xbe105e6d	-0.1409852
64	0x3d6f3438	0.05839941
65	0x3c91b633	0.017787075
66	0xbc9f6004	-0.019454964
67	0x3d487890	0.048943102
68	0xbdf95c83	-0.12175848
69	0xbd1d8e73	-0.03846593
70	0xbd38dbed	-0.045131613
71	0x3c967821	0.018367829
72	0xbd63d022	-0.055618413
73	0x3e062283	0.13099103
74	0x3b855c90	0.004069872
75	0xbd8b7a3f	-0.06810426
76	0x3c73ff0f	0.014892354
77	0x3d2f5a76	0.04281088
78	0x3d0a3577	0.033742394
79	0x3d7157e0	0.058921695
80	0xbbfb0cb9	-0.007661429
81	0xbcc8d6d5	-0.024516502
82	0x3cceacc3	0.025228864
83	0x3d2fb03c	0.04289268
84	0x3aeb8cf3	0.0017971083
85	0x3c64afea	0.013957957
86	0x3b949d8a	0.0045353817
87	0xbe164376	-0.14674172
88	0xbc92aea0	-0.017905533
89	0xbd2f87b8	-0.04285404
90	0xbd9512b4	-0.07278958
91	0x3c266e47	0.010158128
92	0xbb9fd51d	-0.0048777
93	0xbd251e4c	-0.040312096
94	0xbc93c55e	-0.018038448
95	0x3cde32dd	0.027123863
96	0xbd3fbb03	-0.046809208
97	0x3b205835	0.0024466638
98	0xbd11a706	-0.035559677
99	0x3d3ed49c	0.04658948
100	0xbd483cea	-0.048886217
101	0xbc86ada5	-0.016440222
102	0x3d7d6606	0.061864875
103	0xbcb076dd	-0.021541053
104	0x3af4d2c8	0.001867854
105	0x3b745036	0.0037279255
106	0xbd8e23e9	-0.06940443
107	0x3d08a0a9	0.033356342
108	0xbcd7a385	-0.02632309
109	0xbd263215	-0.040575106
110	0xbd9455cc	-0.07242927
111	0xbc2e5f52	-0.010642843
112	0x3d10718d	0.03526454
113	0xbe499302	-0.19684985
114	0x3bfda99e	0.007741167
115	0x3a3f9e80	0.000730969
116	0xbb8e8ae3	-0.0043500527
117	0xbce0b115	-0.02742819
118	0xbd5d4aab	-0.054026287
119	0x3d3fbe80	0.046812534
120	0xbd0566e6	-0.032568835
121	0xbd309c66	-0.043117903
122	0x3c9a9c68	0.018873408
123	0x3d7674ab	0.060169857
124	0xbc3c44ba	-0.011490995
125	0x3d88629e	0.06659435
126	0x3c44e560	0.012017578
127	0xbc83b3d1	-0.016076954

dnn/hiddenlayer_0/MatMul f4 [128, 12]
0	0x3cbc95b6	0.023020606
1	0xbdcecd67	-0.10097771
2	0x3dfa2867	0.122147374
3	0x3da2cd8b	0.079493605
4	0xbde77629	-0.11301834
5	0xbe84f519	-0.25968245
6	0xbcbfd3e0	-0.02341646
7	0xbdcdb291	-0.100438245
8	0xbde575a8	-0.11204082
9	0xbccdf80b	-0.02514269
10	0xba152104	-0.00056888186
11	0xbd8c81a3	-0.06860664
12	0x3e814237	0.2524583
13	0x3e3e1d5f	0.18565892
14	0xbe8bce7d	-0.27305976
15	0x3e31f807	0.17379771
16	0x3c01cc94	0.00792231
17	0x3d8f4c0b	0.06996926
18	0xbdb5c5bd	-0.08875606
19	0x3e41155e	0.18855807
20	0xbd2766d6	-0.040869556
21	0x3dff0488	0.12452036
22	0x3a7d6bff	0.0009667277
23	0x3e91b978	0.28461814
24	0x3d64da7f	0.055872437
25	0xbe5cdcbd	-0.2156858
26	0x3da6cd5b	0.08144637
27	0xbe06a745	-0.13149746
28	0xbd6fb622	-0.058523305
29	0x3e69b579	0.22823133
30	0x3d8e9f01	0.06963921
31	0xbdfa919f	-0.12234806
32	0x3d8a1ef0	0.06744182
33	0xbd3d2323	-0.046176087
34	0xbd0607c7	-0.03272226
35	0xbdd8cfbd	-0.10586498
36	0xbc7d66df	-0.015466421
37	0xbe67c2bb	-0.22632878
38	0x3cb53d72	0.022124026
39	0xbdcf5dff	-0.1012535
40	0x3e46ce2d	0.19414587
41	0x3e123a8a	0.14280143
42	0xbe963bc1	-0.29342464
43	0x3d429186	0.047502063
44	0x3e4fcf36	0.20293888
45	0x3e06953f	0.1314287
46	0xbdb64fb9	-0.08901925
47	0xbd85e156	-0.0653712
48	0xbd7671d7	-0.06016716
49	0x3d21d451	0.03950912
50	0xbe08cfc7	-0.13360511
51	0x3de31a81	0.110890396
52	0x3e156812	0.14590481
53	0x3d4f3057	0.05058321
54	0x3e2db3f1	0.16963173
55	0x3e21ec87	0.15812884
56	0x3dfbf5db	0.123027526
57	0xbe4c6d9a	-0.19963685
58	0xbdbe250f	-0.09284412
59	0xbe488435	-0.19581683
60	0x3e4c58a9	0.19955696
61	0xbe480c63	-0.19535975
62	0x3dcaf61e	0.099102244
63	0x3c5a4efa	0.013324494
64	0xbe218605	-0.1577378
65	0xbe4a1617	-0.19734989
66	0xbcc074be	-0.023493167
67	0xbe098325	-0.13428934
68	0x3e22f8d5	0.15915234
69	0x3e3d2e89	0.18474783
70	0xbe3bf624	-0.18355614
71	0x3dcdf448	0.100563586
72	0xbd095514	-0.033528402
73	0xbde72e0d	-0.1128808
74	0xbe101c6e	-0.14073345
75	0xbe1284b7	-0.14308439
76	0x3bd7f8d1	0.0065909405
77	0xbe059def	-0.13048528
78	0x3e056df3	0.13030224
79	0x3dc7735c	0.097388
80	0x3e1c70f7	0.15277468
81	0xbdd00268	-0.10156709
82	0xbde863f9	-0.11347193
83	0x3e21c66a	0.15798345
84	0xbd6d5cc3	-0.057949793
85	0x3e4c9fb7	0.19982801
86	0x3dc63017	0.09677141
87	0x3d4c71b5	0.049913127
88	0x3d3369de	0.043802135
89	0xbe04c892	-0.12967137
90	0xbde770f3	-0.1130084
91	0xbc04f89a	-0.008115912
92	0x3dd1784d	0.10228024
93	0x3de6e252	0.11273636
94	0xbe2bc1cd	-0.16773148
95	0xbe572da5	-0.21013506
96	0xbd9e9059	-0.07742376
97	0x3da549d3	0.080707215
98	0x3bafdc6b	0.005366852
99	0x3dcda1e5	0.100406446
100	0xbcf97697	-0.030452056
101	0x3e58df72	0.21178988
102	0x3dc83518	0.09775752
103	0x3e391979	0.18076123
104	0xba7aad10	-0.00095625315
105	0xbd37c661	-0.044866923
106	0x3cb85feb	0.022506675
107	0xbe31114a	-0.17291752
108	0x3d1d255b	0.038365703
109	0xbd80f058	-0.06295842
110	0x3b3c2fe3	0.0028715066
111	0x3a190fe4	0.00058388547
112	0xbdfe0ee7	-0.12405186
113	0xbddd673a	-0.108107045
114	0x3c52efe3	0.012874576
115	0xbd826c12	-0.06368269
116	0xbe0ae12c	-0.13562459
117	0xbc971e08	-0.018446937
118	0x3e37d68b	0.17952935
119	0x3e33a7b3	0.17544441
120	0xbe0c4253	-0.13697176
121	0x3e4f1315	0.20222123
122	0x3e487a64	0.19577938
123	0xbe06c2a8	-0.13160193
124	0xbd492216	-0.049104773
125	0x3e064a36	0.13114247
126	0x3d6b4a01	0.057443622
127	0xbd18837c	-0.03723477
128	0x3e3485a5	0.17629106
129	0x3dd667a9	0.1046899
130	0xbdb368c7	-0.08760219
131	0x3e3da7b2	0.18521002
132	0x3e1d3c34	0.15354997
133	0x3d03bc0f	0.03216177
134	0xbea1ebc5	-0.3162519
135	0x3e12615a	0.14294949
136	0x3e1eeae6	0.15519294
137	0x3e3a0516	0.18166003
138	0xbd843ac7	-0.064565234
139	0xbbd36fce	-0.006452537
140	0x3c87fcfb	0.016600123
141	0xbe169479	-0.14705075
142	0xbe0556e1	-0.13021423
143	0xbca3079b	-0.019901088
144	0x3d505076	0.050857984
145	0xbddd663d	-0.10810516
146	0x3d56d91a	0.052453138
147	0x3e36dd4d	0.17857857
148	0xbdbe718b	-0.09299
149	0xbdd157cf	-0.10221826
150	0xbe2d0f11	-0.16900279
151	0x3e1a41f3	0.1506422
152	0x3decb3b4	0.11557713
153	0xbda8ded2	-0.082456246
154	0x3d12af55	0.03581174
155	0xbe03bcb0	-0.12864947
156	0x3e161c6f	0.14659284
157	0x3e007237	0.1254357
158	0xbdf6ebce	-0.12056695
159	0x3d650937	0.05591699
160	0xbe031492	-0.12800816
161	0xbd8a29f0	-0.0674628
162	0x3e2aa096	0.16662821
163	0x3dea692e	0.11445843
164	0x3d667337	0.05626222
165	0xbd7f9246	-0.062395357
166	0xbd09ec27	-0.033672478
167	0xbd11e02a	-0.03561417
168	0xbd74aad8	-0.05973324
169	0xbda3a037	-0.07989543
170	0xbcfc368d	-0.03078773
171	0xbdfe7e6d	-0.124264576
172	0x3d321018	0.04347238
173	0x3d7af675	0.061270196
174	0xbcc26c62	-0.023733322
175	0x3c0b0284	0.0084844865
176	0x3db3d92f	0.08781659
177	0xbe574246	-0.21021375
178	0x3d781907	0.060570743
179	0xbc27c479	-0.010239714
180	0xbdaa9502	-0.08329202
181	0xbd4585aa	-0.048223175
182	0xbd2c4e16	-0.042066656
183	0xbd27e72c	-0.040991947
184	0xbdd24a77	-0.10268109
185	0xbe3f28c5	-0.18667896
186	0x3dfdc0bd	0.123902775
187	0x3e1e284f	0.15445064
188	0xbd43685f	-0.047706958
189	0xbc8c4020	-0.017120421
190	0xbbcddcf0	-0.0062824413
191	0xbc9af9a2	-0.018917862
192	0xbe56f730	-0.20992732
193	0xbe6fd568	-0.23421252
194	0x3e0b8ccd	0.1362793
195	0xbe47c405	-0.1950837
196	0xbdfb5bea	-0.122733906
197	0x3e3bea90	0.18351197
198	0xbd9e009e	-0.077149615
199	0xbe31f53a	-0.17378703
200	0x3c945c08	0.01811029
201	0xbcb4f4c4	-0.02208937
202	0xbe268d9e	-0.1626496
203	0x3d9633a6	0.0733407
204	0xbe44e91c	-0.19229549
205	0xbe0ebc72	-0.13939074
206	0xbe2a2585	-0.16615875
207	0xbe0b9a36	-0.13633046
208	0xbd2344e9	-0.03986064
209	0x3df160cf	0.11786043
210	0xbe8dad89	-0.2767146
211	0x3dc25fb3	0.094909094
212	0x3e592b13	0.21207838
213	0x3dbee1f7	0.09320443
214	0xbe426954	-0.18985492
215	0xbd681c7b	-0.056667786
216	0xbdee055f	-0.11622118
217	0xbd9367a0	-0.07197499
218	0xbdae5e51	-0.08514083
219	0x3e43707e	0.19085881
220	0x3da7368c	0.08164701
221	0xbd0e3200	-0.034715652
222	0xbe1247ca	-0.14285198
223	0x3e371b02	0.17881396
224	0x3d19b0b9	0.03752205
225	0x3de354e9	0.1110018
226	0x3e8ccaaa	0.2749837
227	0x3e7c6d2a	0.24651018
228	0x3e2e6109	0.17029203
229	0x3d937e89	0.07201869
230	0x3d66b60f	0.05632597
231	0xbcfe7d10	-0.031065494
232	0xbd8fd472	-0.070229426
233	0x3d2cc2ca	0.042177953
234	0xbe35ab07	-0.17741023
235	0xbd6c4b73	-0.05768914
236	0x3e108208	0.14112103
237	0x3d1e8438	0.038700312
238	0x3e235683	0.1595097
239	0xbe91b90e	-0.28461498
240	0x3d937d93	0.07201686
241	0x3e3497e5	0.17636068
242	0x3dec72af	0.11545312
243	0xbd1f9f3a	-0.03897021
244	0x3d637185	0.055528183
245	0x3e228ac6	0.1587325
246	0x3e16d98f	0.1473143
247	0x3e3054cd	0.17219849
248	0x3d320891	0.0434652
249	0x3aa988a3	0.0012934398
250	0x3e57280d	0.21011372
251	0xbd316db7	-0.043317523
252	0xbd47d5c7	-0.04878786
253	0xbd57e9cd	-0.052713204
254	0xbd077b8d	-0.03307681
255	0x3dafbed4	0.085813195

dnn/hiddenlayer_1/MatMul f4 [64, 128]
0	0xbd987259	-0.07443685
1	0x3c76b7cd	0.01505847
2	0xbcc854f2	-0.024454568
3	0xbbc623de	-0.006046756
4	0xbc273f17	-0.010207913
5	0xbe14faf1	-0.14548852
6	0x3e2aaad4	0.16666728
7	0x3dcf7c8b	0.101311766
8	0x3d2a3729	0.04155651
9	0xbdea0bae	-0.11428009
10	0xbdd72bb4	-0.105063826
11	0xbdfb9972	-0.12285127
12	0x3dc9b867	0.09849625
13	0x3e35f02a	0.17767397
14	0xbe0404bb	-0.1289243
15	0x3e2af663	0.16695552
16	0x3dd69f44	0.10479596
17	0x3de73ced	0.112909175
18	0x3e190563	0.14943461
19	0x3d494dfc	0.049146637
20	0xbdb7c688	-0.08973414
21	0xbd3cfeca	-0.046141423
22	0x3dda6bd2	0.10665096
23	0x3e2ea1bc	0.17053884
24	0xbe204fa7	-0.15655385
25	0x3b214247	0.0024606155
26	0xbdd0e75d	-0.10200379
27	0x3d99f11b	0.0751669
28	0xbdb6411e	-0.08899139
29	0xbcb616d2	-0.022227678
30	0x3dbb011c	0.09131071
31	0xbdaa11fe	-0.08304213
32	0xbd7d3126	-0.06181445
33	0xbd8813f8	-0.06644434
34	0xbe1ecb96	-0.1550735
35	0x3e01c292	0.12671879
36	0xbdb5fbee	-0.088859424
37	0x3d8255d2	0.06364025
38	0xbc3e556e	-0.011617048
39	0x3ccb345b	0.024805238
40	0x3d3217ec	0.043479845
41	0x3cc43f78	0.023956046
42	0x3d84fa0a	0.06493004
43	0x3e230d73	0.15923099
44	0xbdb2ef94	-0.08737102
45	0x3b23a688	0.0024971087
46	0xbcb399d5	-0.021923939
47	0xbdc1b12a	-0.094576195
48	0x3df51084	0.11966041
49	0x3e228b0e	0.15873358
50	0x3df105ef	0.1176871
51	0x3ca6dc1d	0.02036863
52	0xbdc482e4	-0.09595278
53	0xbd967861	-0.07347179
54	0x3d67a2dc	0.0565518
55	0xbdfc600b	-0.12323006
56	0xbe3d12eb	-0.18464248
57	0x3db4e549	0.08832795
58	0x3dc57190	0.09640801
59	0x3db27e5b	0.08715507
60	0x3d8e2a18	0.069416225
61	0xbd7dcd13	-0.061963152
62	0x3c88de2f	0.016707508
63	0x3d8d9e62	0.06914975
64	0xbd598a7c	-0.053110585
65	0x3e1c2edc	0.1525225
66	0xbe044908	-0.12918484
67	0xbe1cb3b6	-0.1530293
68	0x3d216abc	0.03940843
69	0xbabbb585	-0.0014321065
70	0xbdede421	-0.11615778
71	0x3e0b3b23	0.13596778
72	0xbce96439	-0.028490173
73	0xbdaf5e2c	-0.08562884
74	0x3dede712	0.11616339
75	0x3de6ea71	0.11275185
76	0x3da0f0e3	0.078584455
77	0x3ced4674	0.028964259
78	0xbd6c4b0c	-0.057688758
79	0xbd15978e	-0.036521487
80	0xbdd8f9a5	-0.10594491
81	0xbdd8a73c	-0.105787724
82	0xbdfafe94	-0.12255588
83	0x3dc5489f	0.09632992
84	0x3c1e8c92	0.009677069
85	0x3e03c724	0.12868935
86	0x3dbb5951	0.09147895
87	0x3df75d3a	0.120783284
88	0x3e4c6d46	0.1996356
89	0x3e13100f	0.14361595
90	0xbda5421e	-0.080692515
91	0x3e073397	0.13203274
92	0xbd8ecbd9	-0.069724746
93	0x3e13a473	0.14418201
94	0x3e19eef3	0.15032558
95	0x3d8f3805	0.06993107
96	0xbd5ac045	-0.05340602
97	0xbbe5577e	-0.0069989553
98	0x3dc59f88	0.09649569
99	0x3df5da3b	0.12004515
100	0xbe0f1cef	-0.13975881
101	0xbe51e718	-0.20498312
102	0x3da6c066	0.08142166
103	0xbd61b9bd	-0.055108774
104	0xbe025d0e	-0.1273081
105	0x3dbe0352	0.09277977
106	0xbd0a6705	-0.033789653
107	0xbd85097d	-0.0649595
108	0x3e180ac4	0.14847857
109	0x3c48cc9c	0.012255814
110	0xbe1edb39	-0.15513314
111	0x3e0f91f0	0.14020514
112	0x3d742d19	0.05961332
113	0xbe5c13b4	-0.21491891
114	0x3e19d1d6	0.15021452
115	0x3dd51e6e	0.104061946
116	0x3dc87c43	0.09789326
117	0xbd246c6f	-0.040142473
118	0x3cca467d	0.024691815
119	0xbdee7102	-0.11642648
120	0x3e328cb8	0.17436492
121	0x3d701300	0.05861187
122	0xbdba417f	-0.09094524
123	0xbdf3e620	-0.11909127
124	0x3d6ffe13	0.058591913
125	0x3e24faa8	0.16111243
126	0x3d134749	0.035956655
127	0xbe15dcd1	-0.14635016
128	0x3e333836	0.17501912
129	0x3d9847cf	0.074355714
130	0xbdcacd36	-0.09902422
131	0x3e0a301e	0.13494918
132	0x3d46ffba	0.048583724
133	0x3e2a39dd	0.16623636
134	0x3e2fd96b	0.17172782
135	0xbe12a339	-0.14320077
136	0xbd05190f	-0.0324946
137	0xbe00d971	-0.12582947
138	0x3c323046	0.010875767
139	0xbc909ae3	-0.01765198
140	0x3d441874	0.047874883
141	0xbd67540f	-0.05647665
142	0xbd86ba98	-0.06578559
143	0x3deeda6e	0.11662756
144	0x3d13d616	0.03609284
145	0x3c16ce33	0.009204435
146	0xbd4da398	-0.050204843
147	0xbc7920ff	-0.015205621
148	0xbcc52d19	-0.024069356
149	0x3dd76918	0.10518092
150	0xbe2dcefa	-0.16973487
151	0xbe177ed6	-0.14794478
152	0x3c3ad44f	0.011403157
153	0xbdf45b7c	-0.11931512
154	0x3da3aede	0.07992338
155	0xbd46e837	-0.0485613
156	0x3dc57a2f	0.09642445
157	0xbd0bc1dd	-0.03412043
158	0xbc9c9a94	-0.019116677
159	0x3e2073c7	0.15669166
160	0xbd9649ed	-0.07338319
161	0x3e0ffd13	0.14061384
162	0xbdb43dc6	-0.08800845
163	0x3e22ec5b	0.15910475
164	0x3d66811d	0.056275476
165	0xbdf01bb3	-0.11724033
166	0xbd99950b	-0.07499131
167	0xbd5ece35	-0.054395873
168	0x39d8c1d7	0.00041343152
169	0x3e0250a3	0.12726073
170	0x3b168287	0.0022965984
171	0x3e31079d	0.1728806
172	0x3dca70a5	0.098847665
173	0xbdb3ce95	-0.08779637
174	0xbca6b76b	-0.020351132
175	0x3da5532f	0.08072507
176	0xbcf4ebaf	-0.029897539
177	0xbdac9561	-0.08426929
178	0xbd4eb7a6	-0.05046811
179	0xbd899b7e	-0.06719111
180	0x3da883a4	0.082282335
181	0xbd3add27	-0.045621064
182	0x3d0bcc2c	0.03413026
183	0xb9c79ec9	-0.00038074542
184	0xbd323399	-0.04350624
185	0x3dc288d1	0.09498752
186	0xbe0270b9	-0.12738313
187	0xbe285d4f	-0.16441844
188	0x3d9e657a	0.07734199
189	0x3dcf8306	0.101324126
190	0xbc0d89f9	-0.008638852
191	0xbddf8fe1	-0.109161146
192	0x3e1bac88	0.15202534
193	0x3c9bd6fe	0.019023415
194	0x3d4380ed	0.047730375
195	0x3e2bacc7	0.16765128
196	0xbd839b81	-0.064261444
197	0xbe1ce0d1	-0.15320136
198	0x3e230781	0.15920831
199	0xbd3035ef	-0.043020185
200	0x3d37b855	0.044853527
201	0x3be971b8	0.007124152
202	0x3e193970	0.14963317
203	0xbdf59b4e	-0.11992513
204	0xbe067f63	-0.13134532
205	0x3d488b64	0.04896106
206	0xbe0f8eef	-0.14019369
207	0x3ca2e30f	0.01988366
208	0xbda56290	-0.0807544
209	0x3c8e1076	0.017341834
210	0xbcc37d97	-0.023863597
211	0x3dbedffb	0.09320065
212	0xbe155d12	-0.14586285
213	0xbe00b863	-0.12570338
214	0x3e1ae497	0.15126263
215	0x3c800392	0.015626702
216	0x3df483dc	0.11939213
217	0x3e1d9c4b	0.15391652
218	0xbe06b983	-0.13156705
219	0xbe21350a	-0.15742889
220	0xbca17d37	-0.019713027
221	0x3e0bf954	0.1366933
222	0x3ce4c7e6	0.02792735
223	0xbddd6853	-0.10810914
224	0xbdafa58c	-0.085764974
225	0x3e299c56	0.16563544
226	0xbdf5d558	-0.12003583
227	0x3d9867d8	0.074416816
228	0xbe08999b	-0.13339846
229	0x3de1cce7	0.1102541
230	0xbb49f0a5	-0.0030813601
231	0xbd842d64	-0.0645397
232	0x3c7d1293	0.015446323
233	0x3d8e80a1	0.06958128
234	0x3db51a11	0.088428624
235	0x3d48710d	0.04893594
236	0xbd7a6026	-0.06112685
237	0xbe26a404	-0.16273504
238	0xbbc1ebad	-0.0059179873
239	0xbd8679b7	-0.06566184
240	0xbd84447f	-0.06458377
241	0xbda148ac	-0.07875189
242	0xbdc3ca74	-0.09560099
243	0xbd5887c7	-0.052863862
244	0x3e2bfa3e	0.16794679
245	0x3b247026	0.002509126
246	0x3bbfedd7	0.00585721
247	0xbd021df5	-0.03176685
248	0xbd41d861	-0.047325496
249	0x3dc886bf	0.09791326
250	0x3cb45d00	0.022017002
251	0xbd365dee	-0.044523172
252	0x3def0545	0.11670927
253	0x3da13819	0.07872028
254	0x3d90bda5	0.07067422
255	0x3e068d27	0.13139783

dnn/logits/MatMul f4 [1, 64]
0	0xbe304e91	-0.1721747
1	0x3c8ed29f	0.017434416
2	0xbeade665	-0.3396484
3	0x3e9f4d74	0.3111378
4	0xbe4ddb4c	-0.20103186
5	0xbe7a0b8b	-0.24418466
6	0xbe4814f3	-0.19539241
7	0x3e42a4af	0.19008134
8	0x3e9467e7	0.2898552
9	0x3ebbf681	0.36711505
10	0x3ee5f366	0.4491226
11	0xbe52a2e4	-0.2056995
12	0x3e979714	0.2960745
13	0x3e80f49b	0.2518662
14	0x3d8f2c95	0.06990925
15	0xbe31f781	-0.17379571
16	0xbe85353c	-0.26017177
17	0xbe8daaf5	-0.27669492
18	0x3ea0a0bc	0.3137263
19	0x3e69dd5e	0.22838351
20	0x3e9df25b	0.30848965
21	0x3d2ebb41	0.042659048
22	0x3d306b4c	0.043071076
23	0xbe9044c7	-0.28177473
24	0x3eab28d8	0.334296
25	0x3ecc6683	0.3992196
26	0xbe6f6d33	-0.233815
27	0x3e8fb8f3	0.28070793
28	0x3ea17fc7	0.315428
29	0x3e75c2e0	0.2400012
30	0x3de116d6	0.10990684
31	0x3df61acf	0.12016832
32	0xbe69dd9b	-0.22838442
33	0xbe7fcc7a	-0.24980345
34	0xbeab637e	-0.33474344
35	0xbe1dbfc0	-0.15405178
36	0x3da934a5	0.08261994
37	0xbe83bed7	-0.25731537
38	0x3e88e422	0.26736552
39	0x3eb1e966	0.3474838
40	0xbeab78d4	-0.33490622
41	0x3eb6d2b8	0.3570764
42	0xbe73f35b	-0.23823301
43	0x3e8dc36c	0.27688158
44	0x3ee36a63	0.44417104
45	0xbe800262	-0.25001818
46	0x3e8824be	0.26590532
47	0xbe471689	-0.1944219
48	0xbe78d271	-0.24299027
49	0x3e6a4cf9	0.22880925
50	0x3ed4e3d8	0.4158008
51	0x3e26f887	0.16305743
52	0x3e8bb703	0.27288064
53	0xbdd16ffc	-0.102264374
54	0xbe91d6ee	-0.2848429
55	0xbd1e565c	-0.038656577
56	0xbe8164b4	-0.25272143
57	0xbe80b034	-0.25134432
58	0xbe56e693	-0.20986395
59	0x3ca56c3d	0.020193214
60	0xbe979f0d	-0.29613534
61	0x3dbb9e5e	0.091610655
62	0x3de93037	0.113861494
63	0x3e6d9a12	0.23203304
